…
[2021-11-05 09:29:37] train    Loss: 1.1600 Acc@1: 72.04 Acc@5: 89.25 time: 3502.0137
[2021-11-05 09:31:03] validate Loss: 1.0707 Acc@1: 73.40 Acc@5: 91.45 time: 85.4745
[2021-11-05 09:31:03] storing checkpoint:/pruned_checkpoint/resnet_50_cov52.pt
[2021-11-05 09:31:03] ===> layer_id 4 block_id 2 bestacc 73.4000
[2021-11-05 09:31:03] [… 2021-11-05 09:31:03] [… 2021-11-05 09:31:03] [64, 57, 57, 204, 204, 32, 32, 204, 32, 32, 204, 115, 115, 409, 409, 64, 64, 409, 64, 64, 409, 64, 64, 409, 230, 230, 819, 819, 128, 128, 819, 128, 128, 819, 128, 128, 819, 128, 128, 819, 128, 128, 819, 460, 460, 1843, 1843, 409, 409, 1843, 409, 409, 1843]
[2021-11-05 09:33:24] ResNet50(
  (conv1): Conv2d(3, 64, kernel_size=(7, 7), stride=(2, 2), padding=(3, 3), bias=False)
  (bn1): BatchNorm2d(64, eps=1e-05, momentum=0.1, affine=True, track_running_stats=True)
  (relu): ReLU(inplace=True)
  (maxpool): MaxPool2d(kernel_size=3, stride=2, padding=1, dilation=1, ceil_mode=False)
  (layer1): ModuleList(
    (0): Bottleneck(
      (conv1): Conv2d(64, 57, kernel_size=(1, 1), stride=(1, 1), bias=False)
      (bn1): BatchNorm2d(57, eps=1e-05, momentum=0.1, affine=True, track_running_stats=True)
      (relu1): ReLU(inplace=True)
      (conv2): Conv2d(57, 57, kernel_size=(3, 3), stride=(1, 1), padding=(1, 1), bias=False)
      (bn2): BatchNorm2d(57, eps=1e-05, momentum=0.1, affine=True, track_running_stats=True)
      (relu2): ReLU(inplace=True)
      (conv3): Conv2d(57, 204, kernel_size=(1, 1), stride=(1, 1), bias=False)
      (bn3): BatchNorm2d(204, eps=1e-05, momentum=0.1, affine=True, track_running_stats=True)
      (relu3): ReLU(inplace=True)
      (downsample): Sequential(
        (0): Conv2d(64, 204, kernel_size=(1, 1), stride=(1, 1), bias=False)
        (1): BatchNorm2d(204, eps=1e-05, momentum=0.1, affine=True, track_running_stats=True)
      )
    )
    (1): Bottleneck(
      (conv1): Conv2d(204, 32, kernel_size=(1, 1), stride=(1, 1), bias=False)
      (bn1): BatchNorm2d(32, eps=1e-05, momentum=0.1, affine=True, track_running_stats=True)
      (relu1): ReLU(inplace=True)
      (conv2): Conv2d(32, 32, kernel_size=(3, 3), stride=(1, 1), padding=(1, 1), bias=False)
      (bn2): BatchNorm2d(32, eps=1e-05, momentum=0.1, affine=True, track_running_stats=True)
      (relu2): ReLU(inplace=True)
      (conv3): Conv2d(32, 204, kernel_size=(1, 1), stride=(1, 1), bias=False)
      (bn3): BatchNorm2d(204, eps=1e-05, momentum=0.1, affine=True, track_running_stats=True)
      (relu3): ReLU(inplace=True)
    )
    (2): Bottleneck(
      (conv1): Conv2d(204, 32, kernel_size=(1, 1), stride=(1, 1), bias=False)
      (bn1): BatchNorm2d(32, eps=1e-05, momentum=0.1, affine=True, track_running_stats=True)
      (relu1): ReLU(inplace=True)
      (conv2): Conv2d(32, 32, kernel_size=(3, 3), stride=(1, 1), padding=(1, 1), bias=False)
      (bn2): BatchNorm2d(32, eps=1e-05, momentum=0.1, affine=True, track_running_stats=True)
      (relu2): ReLU(inplace=True)
      (conv3): Conv2d(32, 204, kernel_size=(1, 1), stride=(1, 1), bias=False)
      (bn3): BatchNorm2d(204, eps=1e-05, momentum=0.1, affine=True, track_running_stats=True)
      (relu3): ReLU(inplace=True)
    )
  )
  (layer2): ModuleList(
    (0): Bottleneck(
      (conv1): Conv2d(204, 115, kernel_size=(1, 1), stride=(1, 1), bias=False)
      (bn1): BatchNorm2d(115, eps=1e-05, momentum=0.1, affine=True, track_running_stats=True)
      (relu1): ReLU(inplace=True)
      (conv2): Conv2d(115, 115, kernel_size=(3, 3), stride=(2, 2), padding=(1, 1), bias=False)
      (bn2): BatchNorm2d(115, eps=1e-05, momentum=0.1, affine=True, track_running_stats=True)
      (relu2): ReLU(inplace=True)
      (conv3): Conv2d(115, 409, kernel_size=(1, 1), stride=(1, 1), bias=False)
      (bn3): BatchNorm2d(409, eps=1e-05, momentum=0.1, affine=True, track_running_stats=True)
      (relu3): ReLU(inplace=True)
      (downsample): Sequential(
        (0): Conv2d(204, 409, kernel_size=(1, 1), stride=(2, 2), bias=False)
        (1): BatchNorm2d(409, eps=1e-05, momentum=0.1, affine=True, track_running_stats=True)
      )
    )
    (1): Bottleneck(
      (conv1): Conv2d(409, 64, kernel_size=(1, 1), stride=(1, 1), bias=False)
      (bn1): BatchNorm2d(64, eps=1e-05, momentum=0.1, affine=True, track_running_stats=True)
      (relu1): ReLU(inplace=True)
      (conv2): Conv2d(64, 64, kernel_size=(3, 3), stride=(1, 1), padding=(1, 1), bias=False)
      (bn2): BatchNorm2d(64, eps=1e-05, momentum=0.1, affine=True, track_running_stats=True)
      (relu2): ReLU(inplace=True)
      (conv3): Conv2d(64, 409, kernel_size=(1, 1), stride=(1, 1), bias=False)
      (bn3): BatchNorm2d(409, eps=1e-05, momentum=0.1, affine=True, track_running_stats=True)
      (relu3): ReLU(inplace=True)
    )
    (2): Bottleneck(
      (conv1): Conv2d(409, 64, kernel_size=(1, 1), stride=(1, 1), bias=False)
      (bn1): BatchNorm2d(64, eps=1e-05, momentum=0.1, affine=True, track_running_stats=True)
      (relu1): ReLU(inplace=True)
      (conv2): Conv2d(64, 64, kernel_size=(3, 3), stride=(1, 1), padding=(1, 1), bias=False)
      (bn2): BatchNorm2d(64, eps=1e-05, momentum=0.1, affine=True, track_running_stats=True)
      (relu2): ReLU(inplace=True)
      (conv3): Conv2d(64, 409, kernel_size=(1, 1), stride=(1, 1), bias=False)
      (bn3): BatchNorm2d(409, eps=1e-05, momentum=0.1, affine=True, track_running_stats=True)
      (relu3): ReLU(inplace=True)
    )
    (3): Bottleneck(
      (conv1): Conv2d(409, 64, kernel_size=(1, 1), stride=(1, 1), bias=False)
      (bn1): BatchNorm2d(64, eps=1e-05, momentum=0.1, affine=True, track_running_stats=True)
      (relu1): ReLU(inplace=True)
      (conv2): Conv2d(64, 64, kernel_size=(3, 3), stride=(1, 1), padding=(1, 1), bias=False)
      (bn2): BatchNorm2d(64, eps=1e-05, momentum=0.1, affine=True, track_running_stats=True)
      (relu2): ReLU(inplace=True)
      (conv3): Conv2d(64, 409, kernel_size=(1, 1), stride=(1, 1), bias=False)
      (bn3): BatchNorm2d(409, eps=1e-05, momentum=0.1, affine=True, track_running_stats=True)
      (relu3): ReLU(inplace=True)
    )
  )
  (layer3): ModuleList(
    (0): Bottleneck(
      (conv1): Conv2d(409, 230, kernel_size=(1, 1), stride=(1, 1), bias=False)
      (bn1): BatchNorm2d(230, eps=1e-05, momentum=0.1, affine=True, track_running_stats=True)
      (relu1): ReLU(inplace=True)
      (conv2): Conv2d(230, 230, kernel_size=(3, 3), stride=(2, 2), padding=(1, 1), bias=False)
      (bn2): BatchNorm2d(230, eps=1e-05, momentum=0.1, affine=True, track_running_stats=True)
      (relu2): ReLU(inplace=True)
      (conv3): Conv2d(230, 819, kernel_size=(1, 1), stride=(1, 1), bias=False)
      (bn3): BatchNorm2d(819, eps=1e-05, momentum=0.1, affine=True, track_running_stats=True)
      (relu3): ReLU(inplace=True)
      (downsample): Sequential(
        (0): Conv2d(409, 819, kernel_size=(1, 1), stride=(2, 2), bias=False)
        (1): BatchNorm2d(819, eps=1e-05, momentum=0.1, affine=True, track_running_stats=True)
      )
    )
    (1): Bottleneck(
      (conv1): Conv2d(819, 128, kernel_size=(1, 1), stride=(1, 1), bias=False)
      (bn1): BatchNorm2d(128, eps=1e-05, momentum=0.1, affine=True, track_running_stats=True)
      (relu1): ReLU(inplace=True)
      (conv2): Conv2d(128, 128, kernel_size=(3, 3), stride=(1, 1), padding=(1, 1), bias=False)
      (bn2): BatchNorm2d(128, eps=1e-05, momentum=0.1, affine=True, track_running_stats=True)
      (relu2): ReLU(inplace=True)
      (conv3): Conv2d(128, 819, kernel_size=(1, 1), stride=(1, 1), bias=False)
      (bn3): BatchNorm2d(819, eps=1e-05, momentum=0.1, affine=True, track_running_stats=True)
      (relu3): ReLU(inplace=True)
    )
    (2): Bottleneck(
      (conv1): Conv2d(819, 128, kernel_size=(1, 1), stride=(1, 1), bias=False)
      (bn1): BatchNorm2d(128, eps=1e-05, momentum=0.1, affine=True, track_running_stats=True)
      (relu1): ReLU(inplace=True)
      (conv2): Conv2d(128, 128, kernel_size=(3, 3), stride=(1, 1), padding=(1, 1), bias=False)
      (bn2): BatchNorm2d(128, eps=1e-05, momentum=0.1, affine=True, track_running_stats=True)
      (relu2): ReLU(inplace=True)
      (conv3): Conv2d(128, 819, kernel_size=(1, 1), stride=(1, 1), bias=False)
      (bn3): BatchNorm2d(819, eps=1e-05, momentum=0.1, affine=True, track_running_stats=True)
      (relu3): ReLU(inplace=True)
    )
    (3): Bottleneck(
      (conv1): Conv2d(819, 128, kernel_size=(1, 1), stride=(1, 1), bias=False)
      (bn1): BatchNorm2d(128, eps=1e-05, momentum=0.1, affine=True, track_running_stats=True)
      (relu1): ReLU(inplace=True)
      (conv2): Conv2d(128, 128, kernel_size=(3, 3), stride=(1, 1), padding=(1, 1), bias=False)
      (bn2): BatchNorm2d(128, eps=1e-05, momentum=0.1, affine=True, track_running_stats=True)
      (relu2): ReLU(inplace=True)
      (conv3): Conv2d(128, 819, kernel_size=(1, 1), stride=(1, 1), bias=False)
      (bn3): BatchNorm2d(819, eps=1e-05, momentum=0.1, affine=True, track_running_stats=True)
      (relu3): ReLU(inplace=True)
    )
    (4): Bottleneck(
      (conv1): Conv2d(819, 128, kernel_size=(1, 1), stride=(1, 1), bias=False)
      (bn1): BatchNorm2d(128, eps=1e-05, momentum=0.1, affine=True, track_running_stats=True)
      (relu1): ReLU(inplace=True)
      (conv2): Conv2d(128, 128, kernel_size=(3, 3), stride=(1, 1), padding=(1, 1), bias=False)
      (bn2): BatchNorm2d(128, eps=1e-05, momentum=0.1, affine=True, track_running_stats=True)
      (relu2): ReLU(inplace=True)
      (conv3): Conv2d(128, 819, kernel_size=(1, 1), stride=(1, 1), bias=False)
      (bn3): BatchNorm2d(819, eps=1e-05, momentum=0.1, affine=True, track_running_stats=True)
      (relu3): ReLU(inplace=True)
    )
    (5): Bottleneck(
      (conv1): Conv2d(819, 128, kernel_size=(1, 1), stride=(1, 1), bias=False)
      (bn1): BatchNorm2d(128, eps=1e-05, momentum=0.1, affine=True, track_running_stats=True)
      (relu1): ReLU(inplace=True)
      (conv2): Conv2d(128, 128, kernel_size=(3, 3), stride=(1, 1), padding=(1, 1), bias=False)
      (bn2): BatchNorm2d(128, eps=1e-05, momentum=0.1, affine=True, track_running_stats=True)
      (relu2): ReLU(inplace=True)
      (conv3): Conv2d(128, 819, kernel_size=(1, 1), stride=(1, 1), bias=False)
      (bn3): BatchNorm2d(819, eps=1e-05, momentum=0.1, affine=True, track_running_stats=True)
      (relu3): ReLU(inplace=True)
    )
  )
  (layer4): ModuleList(
    (0): Bottleneck(
      (conv1): Conv2d(819, 460, kernel_size=(1, 1), stride=(1, 1), bias=False)
      (bn1): BatchNorm2d(460, eps=1e-05, momentum=0.1, affine=True, track_running_stats=True)
      (relu1): ReLU(inplace=True)
      (conv2): Conv2d(460, 460, kernel_size=(3, 3), stride=(2, 2), padding=(1, 1), bias=False)
      (bn2): BatchNorm2d(460, eps=1e-05, momentum=0.1, affine=True, track_running_stats=True)
      (relu2): ReLU(inplace=True)
      (conv3): Conv2d(460, 1843, kernel_size=(1, 1), stride=(1, 1), bias=False)
      (bn3): BatchNorm2d(1843, eps=1e-05, momentum=0.1, affine=True, track_running_stats=True)
      (relu3): ReLU(inplace=True)
      (downsample): Sequential(
        (0): Conv2d(819, 1843, kernel_size=(1, 1), stride=(2, 2), bias=False)
        (1): BatchNorm2d(1843, eps=1e-05, momentum=0.1, affine=True, track_running_stats=True)
      )
    )
    (1): Bottleneck(
      (conv1): Conv2d(1843, 409, kernel_size=(1, 1), stride=(1, 1), bias=False)
      (bn1): BatchNorm2d(409, eps=1e-05, momentum=0.1, affine=True, track_running_stats=True)
      (relu1): ReLU(inplace=True)
      (conv2): Conv2d(409, 409, kernel_size=(3, 3), stride=(1, 1), padding=(1, 1), bias=False)
      (bn2): BatchNorm2d(409, eps=1e-05, momentum=0.1, affine=True, track_running_stats=True)
      (relu2): ReLU(inplace=True)
      (conv3): Conv2d(409, 1843, kernel_size=(1, 1), stride=(1, 1), bias=False)
      (bn3): BatchNorm2d(1843, eps=1e-05, momentum=0.1, affine=True, track_running_stats=True)
      (relu3): ReLU(inplace=True)
    )
    (2): Bottleneck(
      (conv1): Conv2d(1843, 409, kernel_size=(1, 1), stride=(1, 1), bias=False)
      (bn1): BatchNorm2d(409, eps=1e-05, momentum=0.1, affine=True, track_running_stats=True)
      (relu1): ReLU(inplace=True)
      (conv2): Conv2d(409, 409, kernel_size=(3, 3), stride=(1, 1), padding=(1, 1), bias=False)
      (bn2): BatchNorm2d(409, eps=1e-05, momentum=0.1, affine=True, track_running_stats=True)
      (relu2): ReLU(inplace=True)
      (conv3): Conv2d(409, 1843, kernel_size=(1, 1), stride=(1, 1), bias=False)
      (bn3): BatchNorm2d(1843, eps=1e-05, momentum=0.1, affine=True, track_running_stats=True)
      (relu3): ReLU(inplace=True)
    )
  )
  (avgpool): AdaptiveAvgPool2d(output_size=(1, 1))
  (fc): Linear(in_features=1843, out_features=1000, bias=True)
)
[2021-11-05 09:33:24] storing pruned_model:/finally_pruned_model/resnet_50_1.pt
[2021-11-05 09:34:42] validate Loss: 1.0707 Acc@1: 73.40 Acc@5: 91.45 time: 77.6493
[2021-11-05 09:34:42] finally model  Acc@1: 73.40 Acc@5: 91.45 flops: 2134021533.0 params:16082147.0
