…
[2021-11-11 05:52:19] train    Loss: 1.6275 Acc@1: 62.40 Acc@5: 83.36 time: 7055.0414
[2021-11-11 05:53:46] validate Loss: 1.3187 Acc@1: 67.50 Acc@5: 88.20 time: 86.6434
[2021-11-11 05:53:46] storing checkpoint:/pruned_checkpoint/resnet_50_cov52.pt
[2021-11-11 05:53:46] ===> layer_id 4 block_id 2 bestacc 67.5020
[2021-11-11 05:53:46] [… 2021-11-11 05:53:46] [… 2021-11-11 05:53:46] [64, 51, 51, 89, 89, 16, 16, 89, 16, 16, 89, 108, 108, 179, 179, 32, 32, 179, 32, 32, 179, 32, 32, 179, 217, 217, 358, 358, 64, 64, 358, 64, 64, 358, 64, 64, 358, 64, 64, 358, 64, 64, 358, 435, 435, 1331, 1331, 256, 256, 1331, 256, 256, 1331]
[2021-11-11 05:56:19] ResNet50(
  (conv1): Conv2d(3, 64, kernel_size=(7, 7), stride=(2, 2), padding=(3, 3), bias=False)
  (bn1): BatchNorm2d(64, eps=1e-05, momentum=0.1, affine=True, track_running_stats=True)
  (relu): ReLU(inplace=True)
  (maxpool): MaxPool2d(kernel_size=3, stride=2, padding=1, dilation=1, ceil_mode=False)
  (layer1): ModuleList(
    (0): Bottleneck(
      (conv1): Conv2d(64, 51, kernel_size=(1, 1), stride=(1, 1), bias=False)
      (bn1): BatchNorm2d(51, eps=1e-05, momentum=0.1, affine=True, track_running_stats=True)
      (relu1): ReLU(inplace=True)
      (conv2): Conv2d(51, 51, kernel_size=(3, 3), stride=(1, 1), padding=(1, 1), bias=False)
      (bn2): BatchNorm2d(51, eps=1e-05, momentum=0.1, affine=True, track_running_stats=True)
      (relu2): ReLU(inplace=True)
      (conv3): Conv2d(51, 89, kernel_size=(1, 1), stride=(1, 1), bias=False)
      (bn3): BatchNorm2d(89, eps=1e-05, momentum=0.1, affine=True, track_running_stats=True)
      (relu3): ReLU(inplace=True)
      (downsample): Sequential(
        (0): Conv2d(64, 89, kernel_size=(1, 1), stride=(1, 1), bias=False)
        (1): BatchNorm2d(89, eps=1e-05, momentum=0.1, affine=True, track_running_stats=True)
      )
    )
    (1): Bottleneck(
      (conv1): Conv2d(89, 16, kernel_size=(1, 1), stride=(1, 1), bias=False)
      (bn1): BatchNorm2d(16, eps=1e-05, momentum=0.1, affine=True, track_running_stats=True)
      (relu1): ReLU(inplace=True)
      (conv2): Conv2d(16, 16, kernel_size=(3, 3), stride=(1, 1), padding=(1, 1), bias=False)
      (bn2): BatchNorm2d(16, eps=1e-05, momentum=0.1, affine=True, track_running_stats=True)
      (relu2): ReLU(inplace=True)
      (conv3): Conv2d(16, 89, kernel_size=(1, 1), stride=(1, 1), bias=False)
      (bn3): BatchNorm2d(89, eps=1e-05, momentum=0.1, affine=True, track_running_stats=True)
      (relu3): ReLU(inplace=True)
    )
    (2): Bottleneck(
      (conv1): Conv2d(89, 16, kernel_size=(1, 1), stride=(1, 1), bias=False)
      (bn1): BatchNorm2d(16, eps=1e-05, momentum=0.1, affine=True, track_running_stats=True)
      (relu1): ReLU(inplace=True)
      (conv2): Conv2d(16, 16, kernel_size=(3, 3), stride=(1, 1), padding=(1, 1), bias=False)
      (bn2): BatchNorm2d(16, eps=1e-05, momentum=0.1, affine=True, track_running_stats=True)
      (relu2): ReLU(inplace=True)
      (conv3): Conv2d(16, 89, kernel_size=(1, 1), stride=(1, 1), bias=False)
      (bn3): BatchNorm2d(89, eps=1e-05, momentum=0.1, affine=True, track_running_stats=True)
      (relu3): ReLU(inplace=True)
    )
  )
  (layer2): ModuleList(
    (0): Bottleneck(
      (conv1): Conv2d(89, 108, kernel_size=(1, 1), stride=(1, 1), bias=False)
      (bn1): BatchNorm2d(108, eps=1e-05, momentum=0.1, affine=True, track_running_stats=True)
      (relu1): ReLU(inplace=True)
      (conv2): Conv2d(108, 108, kernel_size=(3, 3), stride=(2, 2), padding=(1, 1), bias=False)
      (bn2): BatchNorm2d(108, eps=1e-05, momentum=0.1, affine=True, track_running_stats=True)
      (relu2): ReLU(inplace=True)
      (conv3): Conv2d(108, 179, kernel_size=(1, 1), stride=(1, 1), bias=False)
      (bn3): BatchNorm2d(179, eps=1e-05, momentum=0.1, affine=True, track_running_stats=True)
      (relu3): ReLU(inplace=True)
      (downsample): Sequential(
        (0): Conv2d(89, 179, kernel_size=(1, 1), stride=(2, 2), bias=False)
        (1): BatchNorm2d(179, eps=1e-05, momentum=0.1, affine=True, track_running_stats=True)
      )
    )
    (1): Bottleneck(
      (conv1): Conv2d(179, 32, kernel_size=(1, 1), stride=(1, 1), bias=False)
      (bn1): BatchNorm2d(32, eps=1e-05, momentum=0.1, affine=True, track_running_stats=True)
      (relu1): ReLU(inplace=True)
      (conv2): Conv2d(32, 32, kernel_size=(3, 3), stride=(1, 1), padding=(1, 1), bias=False)
      (bn2): BatchNorm2d(32, eps=1e-05, momentum=0.1, affine=True, track_running_stats=True)
      (relu2): ReLU(inplace=True)
      (conv3): Conv2d(32, 179, kernel_size=(1, 1), stride=(1, 1), bias=False)
      (bn3): BatchNorm2d(179, eps=1e-05, momentum=0.1, affine=True, track_running_stats=True)
      (relu3): ReLU(inplace=True)
    )
    (2): Bottleneck(
      (conv1): Conv2d(179, 32, kernel_size=(1, 1), stride=(1, 1), bias=False)
      (bn1): BatchNorm2d(32, eps=1e-05, momentum=0.1, affine=True, track_running_stats=True)
      (relu1): ReLU(inplace=True)
      (conv2): Conv2d(32, 32, kernel_size=(3, 3), stride=(1, 1), padding=(1, 1), bias=False)
      (bn2): BatchNorm2d(32, eps=1e-05, momentum=0.1, affine=True, track_running_stats=True)
      (relu2): ReLU(inplace=True)
      (conv3): Conv2d(32, 179, kernel_size=(1, 1), stride=(1, 1), bias=False)
      (bn3): BatchNorm2d(179, eps=1e-05, momentum=0.1, affine=True, track_running_stats=True)
      (relu3): ReLU(inplace=True)
    )
    (3): Bottleneck(
      (conv1): Conv2d(179, 32, kernel_size=(1, 1), stride=(1, 1), bias=False)
      (bn1): BatchNorm2d(32, eps=1e-05, momentum=0.1, affine=True, track_running_stats=True)
      (relu1): ReLU(inplace=True)
      (conv2): Conv2d(32, 32, kernel_size=(3, 3), stride=(1, 1), padding=(1, 1), bias=False)
      (bn2): BatchNorm2d(32, eps=1e-05, momentum=0.1, affine=True, track_running_stats=True)
      (relu2): ReLU(inplace=True)
      (conv3): Conv2d(32, 179, kernel_size=(1, 1), stride=(1, 1), bias=False)
      (bn3): BatchNorm2d(179, eps=1e-05, momentum=0.1, affine=True, track_running_stats=True)
      (relu3): ReLU(inplace=True)
    )
  )
  (layer3): ModuleList(
    (0): Bottleneck(
      (conv1): Conv2d(179, 217, kernel_size=(1, 1), stride=(1, 1), bias=False)
      (bn1): BatchNorm2d(217, eps=1e-05, momentum=0.1, affine=True, track_running_stats=True)
      (relu1): ReLU(inplace=True)
      (conv2): Conv2d(217, 217, kernel_size=(3, 3), stride=(2, 2), padding=(1, 1), bias=False)
      (bn2): BatchNorm2d(217, eps=1e-05, momentum=0.1, affine=True, track_running_stats=True)
      (relu2): ReLU(inplace=True)
      (conv3): Conv2d(217, 358, kernel_size=(1, 1), stride=(1, 1), bias=False)
      (bn3): BatchNorm2d(358, eps=1e-05, momentum=0.1, affine=True, track_running_stats=True)
      (relu3): ReLU(inplace=True)
      (downsample): Sequential(
        (0): Conv2d(179, 358, kernel_size=(1, 1), stride=(2, 2), bias=False)
        (1): BatchNorm2d(358, eps=1e-05, momentum=0.1, affine=True, track_running_stats=True)
      )
    )
    (1): Bottleneck(
      (conv1): Conv2d(358, 64, kernel_size=(1, 1), stride=(1, 1), bias=False)
      (bn1): BatchNorm2d(64, eps=1e-05, momentum=0.1, affine=True, track_running_stats=True)
      (relu1): ReLU(inplace=True)
      (conv2): Conv2d(64, 64, kernel_size=(3, 3), stride=(1, 1), padding=(1, 1), bias=False)
      (bn2): BatchNorm2d(64, eps=1e-05, momentum=0.1, affine=True, track_running_stats=True)
      (relu2): ReLU(inplace=True)
      (conv3): Conv2d(64, 358, kernel_size=(1, 1), stride=(1, 1), bias=False)
      (bn3): BatchNorm2d(358, eps=1e-05, momentum=0.1, affine=True, track_running_stats=True)
      (relu3): ReLU(inplace=True)
    )
    (2): Bottleneck(
      (conv1): Conv2d(358, 64, kernel_size=(1, 1), stride=(1, 1), bias=False)
      (bn1): BatchNorm2d(64, eps=1e-05, momentum=0.1, affine=True, track_running_stats=True)
      (relu1): ReLU(inplace=True)
      (conv2): Conv2d(64, 64, kernel_size=(3, 3), stride=(1, 1), padding=(1, 1), bias=False)
      (bn2): BatchNorm2d(64, eps=1e-05, momentum=0.1, affine=True, track_running_stats=True)
      (relu2): ReLU(inplace=True)
      (conv3): Conv2d(64, 358, kernel_size=(1, 1), stride=(1, 1), bias=False)
      (bn3): BatchNorm2d(358, eps=1e-05, momentum=0.1, affine=True, track_running_stats=True)
      (relu3): ReLU(inplace=True)
    )
    (3): Bottleneck(
      (conv1): Conv2d(358, 64, kernel_size=(1, 1), stride=(1, 1), bias=False)
      (bn1): BatchNorm2d(64, eps=1e-05, momentum=0.1, affine=True, track_running_stats=True)
      (relu1): ReLU(inplace=True)
      (conv2): Conv2d(64, 64, kernel_size=(3, 3), stride=(1, 1), padding=(1, 1), bias=False)
      (bn2): BatchNorm2d(64, eps=1e-05, momentum=0.1, affine=True, track_running_stats=True)
      (relu2): ReLU(inplace=True)
      (conv3): Conv2d(64, 358, kernel_size=(1, 1), stride=(1, 1), bias=False)
      (bn3): BatchNorm2d(358, eps=1e-05, momentum=0.1, affine=True, track_running_stats=True)
      (relu3): ReLU(inplace=True)
    )
    (4): Bottleneck(
      (conv1): Conv2d(358, 64, kernel_size=(1, 1), stride=(1, 1), bias=False)
      (bn1): BatchNorm2d(64, eps=1e-05, momentum=0.1, affine=True, track_running_stats=True)
      (relu1): ReLU(inplace=True)
      (conv2): Conv2d(64, 64, kernel_size=(3, 3), stride=(1, 1), padding=(1, 1), bias=False)
      (bn2): BatchNorm2d(64, eps=1e-05, momentum=0.1, affine=True, track_running_stats=True)
      (relu2): ReLU(inplace=True)
      (conv3): Conv2d(64, 358, kernel_size=(1, 1), stride=(1, 1), bias=False)
      (bn3): BatchNorm2d(358, eps=1e-05, momentum=0.1, affine=True, track_running_stats=True)
      (relu3): ReLU(inplace=True)
    )
    (5): Bottleneck(
      (conv1): Conv2d(358, 64, kernel_size=(1, 1), stride=(1, 1), bias=False)
      (bn1): BatchNorm2d(64, eps=1e-05, momentum=0.1, affine=True, track_running_stats=True)
      (relu1): ReLU(inplace=True)
      (conv2): Conv2d(64, 64, kernel_size=(3, 3), stride=(1, 1), padding=(1, 1), bias=False)
      (bn2): BatchNorm2d(64, eps=1e-05, momentum=0.1, affine=True, track_running_stats=True)
      (relu2): ReLU(inplace=True)
      (conv3): Conv2d(64, 358, kernel_size=(1, 1), stride=(1, 1), bias=False)
      (bn3): BatchNorm2d(358, eps=1e-05, momentum=0.1, affine=True, track_running_stats=True)
      (relu3): ReLU(inplace=True)
    )
  )
  (layer4): ModuleList(
    (0): Bottleneck(
      (conv1): Conv2d(358, 435, kernel_size=(1, 1), stride=(1, 1), bias=False)
      (bn1): BatchNorm2d(435, eps=1e-05, momentum=0.1, affine=True, track_running_stats=True)
      (relu1): ReLU(inplace=True)
      (conv2): Conv2d(435, 435, kernel_size=(3, 3), stride=(2, 2), padding=(1, 1), bias=False)
      (bn2): BatchNorm2d(435, eps=1e-05, momentum=0.1, affine=True, track_running_stats=True)
      (relu2): ReLU(inplace=True)
      (conv3): Conv2d(435, 1331, kernel_size=(1, 1), stride=(1, 1), bias=False)
      (bn3): BatchNorm2d(1331, eps=1e-05, momentum=0.1, affine=True, track_running_stats=True)
      (relu3): ReLU(inplace=True)
      (downsample): Sequential(
        (0): Conv2d(358, 1331, kernel_size=(1, 1), stride=(2, 2), bias=False)
        (1): BatchNorm2d(1331, eps=1e-05, momentum=0.1, affine=True, track_running_stats=True)
      )
    )
    (1): Bottleneck(
      (conv1): Conv2d(1331, 256, kernel_size=(1, 1), stride=(1, 1), bias=False)
      (bn1): BatchNorm2d(256, eps=1e-05, momentum=0.1, affine=True, track_running_stats=True)
      (relu1): ReLU(inplace=True)
      (conv2): Conv2d(256, 256, kernel_size=(3, 3), stride=(1, 1), padding=(1, 1), bias=False)
      (bn2): BatchNorm2d(256, eps=1e-05, momentum=0.1, affine=True, track_running_stats=True)
      (relu2): ReLU(inplace=True)
      (conv3): Conv2d(256, 1331, kernel_size=(1, 1), stride=(1, 1), bias=False)
      (bn3): BatchNorm2d(1331, eps=1e-05, momentum=0.1, affine=True, track_running_stats=True)
      (relu3): ReLU(inplace=True)
    )
    (2): Bottleneck(
      (conv1): Conv2d(1331, 256, kernel_size=(1, 1), stride=(1, 1), bias=False)
      (bn1): BatchNorm2d(256, eps=1e-05, momentum=0.1, affine=True, track_running_stats=True)
      (relu1): ReLU(inplace=True)
      (conv2): Conv2d(256, 256, kernel_size=(3, 3), stride=(1, 1), padding=(1, 1), bias=False)
      (bn2): BatchNorm2d(256, eps=1e-05, momentum=0.1, affine=True, track_running_stats=True)
      (relu2): ReLU(inplace=True)
      (conv3): Conv2d(256, 1331, kernel_size=(1, 1), stride=(1, 1), bias=False)
      (bn3): BatchNorm2d(1331, eps=1e-05, momentum=0.1, affine=True, track_running_stats=True)
      (relu3): ReLU(inplace=True)
    )
  )
  (avgpool): AdaptiveAvgPool2d(output_size=(1, 1))
  (fc): Linear(in_features=1331, out_features=1000, bias=True)
)
[2021-11-11 05:56:20] storing pruned_model:/finally_pruned_model/resnet_50_1.pt
[2021-11-11 05:57:28] validate Loss: 1.3187 Acc@1: 67.50 Acc@5: 88.20 time: 68.0949
[2021-11-11 05:57:28] finally model  Acc@1: 67.50 Acc@5: 88.20 flops: 978719700.0 params:8100543.0
