…
[2021-10-05 19:54:46] train    Loss: 0.0291 Acc@1: 99.71 Acc@5: 100.00 time: 62.2964
[2021-10-05 19:54:51] validate Loss: 0.2269 Acc@1: 93.99 Acc@5: 99.71 time: 4.1060
[2021-10-05 19:54:51] epoch 29 learning_rate 0.0001 
[2021-10-05 19:55:53] train    Loss: 0.0280 Acc@1: 99.75 Acc@5: 100.00 time: 62.1758
[2021-10-05 19:55:57] validate Loss: 0.2272 Acc@1: 94.08 Acc@5: 99.72 time: 4.0941
[2021-10-05 19:55:57] ===> dense_id 3 block_id 11 best_acc 94.3300
[2021-10-05 19:55:57] [… 2021-10-05 19:55:57] [24, 8, 8, 8, 8, 8, 8, 8, 8, 8, 8, 8, 8, 151, 8, 8, 8, 8, 8, 8, 8, 8, 8, 8, 8, 8, 280, 8, 8, 8, 8, 8, 8, 8, 8, 12, 12, 12, 12]
[2021-10-05 19:56:03] DenseNet(
  (conv1): Conv2d(3, 24, kernel_size=(3, 3), stride=(1, 1), padding=(1, 1), bias=False)
  (dense1): Sequential(
    (0): DenseBasicBlock(
      (bn1): BatchNorm2d(24, eps=1e-05, momentum=0.1, affine=True, track_running_stats=True)
      (relu): ReLU(inplace=True)
      (conv1): Conv2d(24, 8, kernel_size=(3, 3), stride=(1, 1), padding=(1, 1), bias=False)
    )
    (1): DenseBasicBlock(
      (bn1): BatchNorm2d(32, eps=1e-05, momentum=0.1, affine=True, track_running_stats=True)
      (relu): ReLU(inplace=True)
      (conv1): Conv2d(32, 8, kernel_size=(3, 3), stride=(1, 1), padding=(1, 1), bias=False)
    )
    (2): DenseBasicBlock(
      (bn1): BatchNorm2d(40, eps=1e-05, momentum=0.1, affine=True, track_running_stats=True)
      (relu): ReLU(inplace=True)
      (conv1): Conv2d(40, 8, kernel_size=(3, 3), stride=(1, 1), padding=(1, 1), bias=False)
    )
    (3): DenseBasicBlock(
      (bn1): BatchNorm2d(48, eps=1e-05, momentum=0.1, affine=True, track_running_stats=True)
      (relu): ReLU(inplace=True)
      (conv1): Conv2d(48, 8, kernel_size=(3, 3), stride=(1, 1), padding=(1, 1), bias=False)
    )
    (4): DenseBasicBlock(
      (bn1): BatchNorm2d(56, eps=1e-05, momentum=0.1, affine=True, track_running_stats=True)
      (relu): ReLU(inplace=True)
      (conv1): Conv2d(56, 8, kernel_size=(3, 3), stride=(1, 1), padding=(1, 1), bias=False)
    )
    (5): DenseBasicBlock(
      (bn1): BatchNorm2d(64, eps=1e-05, momentum=0.1, affine=True, track_running_stats=True)
      (relu): ReLU(inplace=True)
      (conv1): Conv2d(64, 8, kernel_size=(3, 3), stride=(1, 1), padding=(1, 1), bias=False)
    )
    (6): DenseBasicBlock(
      (bn1): BatchNorm2d(72, eps=1e-05, momentum=0.1, affine=True, track_running_stats=True)
      (relu): ReLU(inplace=True)
      (conv1): Conv2d(72, 8, kernel_size=(3, 3), stride=(1, 1), padding=(1, 1), bias=False)
    )
    (7): DenseBasicBlock(
      (bn1): BatchNorm2d(80, eps=1e-05, momentum=0.1, affine=True, track_running_stats=True)
      (relu): ReLU(inplace=True)
      (conv1): Conv2d(80, 8, kernel_size=(3, 3), stride=(1, 1), padding=(1, 1), bias=False)
    )
    (8): DenseBasicBlock(
      (bn1): BatchNorm2d(88, eps=1e-05, momentum=0.1, affine=True, track_running_stats=True)
      (relu): ReLU(inplace=True)
      (conv1): Conv2d(88, 8, kernel_size=(3, 3), stride=(1, 1), padding=(1, 1), bias=False)
    )
    (9): DenseBasicBlock(
      (bn1): BatchNorm2d(96, eps=1e-05, momentum=0.1, affine=True, track_running_stats=True)
      (relu): ReLU(inplace=True)
      (conv1): Conv2d(96, 8, kernel_size=(3, 3), stride=(1, 1), padding=(1, 1), bias=False)
    )
    (10): DenseBasicBlock(
      (bn1): BatchNorm2d(104, eps=1e-05, momentum=0.1, affine=True, track_running_stats=True)
      (relu): ReLU(inplace=True)
      (conv1): Conv2d(104, 8, kernel_size=(3, 3), stride=(1, 1), padding=(1, 1), bias=False)
    )
    (11): DenseBasicBlock(
      (bn1): BatchNorm2d(112, eps=1e-05, momentum=0.1, affine=True, track_running_stats=True)
      (relu): ReLU(inplace=True)
      (conv1): Conv2d(112, 8, kernel_size=(3, 3), stride=(1, 1), padding=(1, 1), bias=False)
    )
  )
  (trans1): Transition(
    (bn1): BatchNorm2d(120, eps=1e-05, momentum=0.1, affine=True, track_running_stats=True)
    (relu): ReLU(inplace=True)
    (conv1): Conv2d(120, 151, kernel_size=(1, 1), stride=(1, 1), bias=False)
  )
  (dense2): Sequential(
    (0): DenseBasicBlock(
      (bn1): BatchNorm2d(151, eps=1e-05, momentum=0.1, affine=True, track_running_stats=True)
      (relu): ReLU(inplace=True)
      (conv1): Conv2d(151, 8, kernel_size=(3, 3), stride=(1, 1), padding=(1, 1), bias=False)
    )
    (1): DenseBasicBlock(
      (bn1): BatchNorm2d(159, eps=1e-05, momentum=0.1, affine=True, track_running_stats=True)
      (relu): ReLU(inplace=True)
      (conv1): Conv2d(159, 8, kernel_size=(3, 3), stride=(1, 1), padding=(1, 1), bias=False)
    )
    (2): DenseBasicBlock(
      (bn1): BatchNorm2d(167, eps=1e-05, momentum=0.1, affine=True, track_running_stats=True)
      (relu): ReLU(inplace=True)
      (conv1): Conv2d(167, 8, kernel_size=(3, 3), stride=(1, 1), padding=(1, 1), bias=False)
    )
    (3): DenseBasicBlock(
      (bn1): BatchNorm2d(175, eps=1e-05, momentum=0.1, affine=True, track_running_stats=True)
      (relu): ReLU(inplace=True)
      (conv1): Conv2d(175, 8, kernel_size=(3, 3), stride=(1, 1), padding=(1, 1), bias=False)
    )
    (4): DenseBasicBlock(
      (bn1): BatchNorm2d(183, eps=1e-05, momentum=0.1, affine=True, track_running_stats=True)
      (relu): ReLU(inplace=True)
      (conv1): Conv2d(183, 8, kernel_size=(3, 3), stride=(1, 1), padding=(1, 1), bias=False)
    )
    (5): DenseBasicBlock(
      (bn1): BatchNorm2d(191, eps=1e-05, momentum=0.1, affine=True, track_running_stats=True)
      (relu): ReLU(inplace=True)
      (conv1): Conv2d(191, 8, kernel_size=(3, 3), stride=(1, 1), padding=(1, 1), bias=False)
    )
    (6): DenseBasicBlock(
      (bn1): BatchNorm2d(199, eps=1e-05, momentum=0.1, affine=True, track_running_stats=True)
      (relu): ReLU(inplace=True)
      (conv1): Conv2d(199, 8, kernel_size=(3, 3), stride=(1, 1), padding=(1, 1), bias=False)
    )
    (7): DenseBasicBlock(
      (bn1): BatchNorm2d(207, eps=1e-05, momentum=0.1, affine=True, track_running_stats=True)
      (relu): ReLU(inplace=True)
      (conv1): Conv2d(207, 8, kernel_size=(3, 3), stride=(1, 1), padding=(1, 1), bias=False)
    )
    (8): DenseBasicBlock(
      (bn1): BatchNorm2d(215, eps=1e-05, momentum=0.1, affine=True, track_running_stats=True)
      (relu): ReLU(inplace=True)
      (conv1): Conv2d(215, 8, kernel_size=(3, 3), stride=(1, 1), padding=(1, 1), bias=False)
    )
    (9): DenseBasicBlock(
      (bn1): BatchNorm2d(223, eps=1e-05, momentum=0.1, affine=True, track_running_stats=True)
      (relu): ReLU(inplace=True)
      (conv1): Conv2d(223, 8, kernel_size=(3, 3), stride=(1, 1), padding=(1, 1), bias=False)
    )
    (10): DenseBasicBlock(
      (bn1): BatchNorm2d(231, eps=1e-05, momentum=0.1, affine=True, track_running_stats=True)
      (relu): ReLU(inplace=True)
      (conv1): Conv2d(231, 8, kernel_size=(3, 3), stride=(1, 1), padding=(1, 1), bias=False)
    )
    (11): DenseBasicBlock(
      (bn1): BatchNorm2d(239, eps=1e-05, momentum=0.1, affine=True, track_running_stats=True)
      (relu): ReLU(inplace=True)
      (conv1): Conv2d(239, 8, kernel_size=(3, 3), stride=(1, 1), padding=(1, 1), bias=False)
    )
  )
  (trans2): Transition(
    (bn1): BatchNorm2d(247, eps=1e-05, momentum=0.1, affine=True, track_running_stats=True)
    (relu): ReLU(inplace=True)
    (conv1): Conv2d(247, 280, kernel_size=(1, 1), stride=(1, 1), bias=False)
  )
  (dense3): Sequential(
    (0): DenseBasicBlock(
      (bn1): BatchNorm2d(280, eps=1e-05, momentum=0.1, affine=True, track_running_stats=True)
      (relu): ReLU(inplace=True)
      (conv1): Conv2d(280, 8, kernel_size=(3, 3), stride=(1, 1), padding=(1, 1), bias=False)
    )
    (1): DenseBasicBlock(
      (bn1): BatchNorm2d(288, eps=1e-05, momentum=0.1, affine=True, track_running_stats=True)
      (relu): ReLU(inplace=True)
      (conv1): Conv2d(288, 8, kernel_size=(3, 3), stride=(1, 1), padding=(1, 1), bias=False)
    )
    (2): DenseBasicBlock(
      (bn1): BatchNorm2d(296, eps=1e-05, momentum=0.1, affine=True, track_running_stats=True)
      (relu): ReLU(inplace=True)
      (conv1): Conv2d(296, 8, kernel_size=(3, 3), stride=(1, 1), padding=(1, 1), bias=False)
    )
    (3): DenseBasicBlock(
      (bn1): BatchNorm2d(304, eps=1e-05, momentum=0.1, affine=True, track_running_stats=True)
      (relu): ReLU(inplace=True)
      (conv1): Conv2d(304, 8, kernel_size=(3, 3), stride=(1, 1), padding=(1, 1), bias=False)
    )
    (4): DenseBasicBlock(
      (bn1): BatchNorm2d(312, eps=1e-05, momentum=0.1, affine=True, track_running_stats=True)
      (relu): ReLU(inplace=True)
      (conv1): Conv2d(312, 8, kernel_size=(3, 3), stride=(1, 1), padding=(1, 1), bias=False)
    )
    (5): DenseBasicBlock(
      (bn1): BatchNorm2d(320, eps=1e-05, momentum=0.1, affine=True, track_running_stats=True)
      (relu): ReLU(inplace=True)
      (conv1): Conv2d(320, 8, kernel_size=(3, 3), stride=(1, 1), padding=(1, 1), bias=False)
    )
    (6): DenseBasicBlock(
      (bn1): BatchNorm2d(328, eps=1e-05, momentum=0.1, affine=True, track_running_stats=True)
      (relu): ReLU(inplace=True)
      (conv1): Conv2d(328, 8, kernel_size=(3, 3), stride=(1, 1), padding=(1, 1), bias=False)
    )
    (7): DenseBasicBlock(
      (bn1): BatchNorm2d(336, eps=1e-05, momentum=0.1, affine=True, track_running_stats=True)
      (relu): ReLU(inplace=True)
      (conv1): Conv2d(336, 8, kernel_size=(3, 3), stride=(1, 1), padding=(1, 1), bias=False)
    )
    (8): DenseBasicBlock(
      (bn1): BatchNorm2d(344, eps=1e-05, momentum=0.1, affine=True, track_running_stats=True)
      (relu): ReLU(inplace=True)
      (conv1): Conv2d(344, 12, kernel_size=(3, 3), stride=(1, 1), padding=(1, 1), bias=False)
    )
    (9): DenseBasicBlock(
      (bn1): BatchNorm2d(356, eps=1e-05, momentum=0.1, affine=True, track_running_stats=True)
      (relu): ReLU(inplace=True)
      (conv1): Conv2d(356, 12, kernel_size=(3, 3), stride=(1, 1), padding=(1, 1), bias=False)
    )
    (10): DenseBasicBlock(
      (bn1): BatchNorm2d(368, eps=1e-05, momentum=0.1, affine=True, track_running_stats=True)
      (relu): ReLU(inplace=True)
      (conv1): Conv2d(368, 12, kernel_size=(3, 3), stride=(1, 1), padding=(1, 1), bias=False)
    )
    (11): DenseBasicBlock(
      (bn1): BatchNorm2d(380, eps=1e-05, momentum=0.1, affine=True, track_running_stats=True)
      (relu): ReLU(inplace=True)
      (conv1): Conv2d(380, 12, kernel_size=(3, 3), stride=(1, 1), padding=(1, 1), bias=False)
    )
  )
  (bn): BatchNorm2d(392, eps=1e-05, momentum=0.1, affine=True, track_running_stats=True)
  (relu): ReLU(inplace=True)
  (avgpool): AvgPool2d(kernel_size=8, stride=8, padding=0)
  (fc): Linear(in_features=392, out_features=10, bias=True)
)
[2021-10-05 19:56:03] storing pruned_model:/finally_pruned_model/densenet_40_1.pt
[2021-10-05 19:56:06] validate Loss: 0.2138 Acc@1: 94.33 Acc@5: 99.76 time: 3.4707
[2021-10-05 19:56:06] finally model  Acc@1: 94.33 Acc@5: 99.76 flops: 165375704.0 params:668536.0
