…
[2021-11-11 09:07:52] epoch[29](14000/20000) Loss: 1.2076 Acc@1: 72.00 Acc@5: 89.23 time: 355.5667
[2021-11-11 09:13:48] epoch[29](16000/20000) Loss: 1.2080 Acc@1: 71.99 Acc@5: 89.21 time: 355.8182
[2021-11-11 09:19:44] epoch[29](18000/20000) Loss: 1.2080 Acc@1: 71.99 Acc@5: 89.22 time: 355.9383
[2021-11-11 09:25:39] epoch[29](20000/20000) Loss: 1.2085 Acc@1: 71.97 Acc@5: 89.21 time: 355.8609
[2021-11-11 09:25:43] train    Loss: 1.2084 Acc@1: 71.97 Acc@5: 89.21 time: 3564.7594
[2021-11-11 09:27:09] validate Loss: 1.0556 Acc@1: 73.44 Acc@5: 91.57 time: 86.4876
[2021-11-11 09:29:18] ResNet50(
  (conv1): Conv2d(3, 64, kernel_size=(7, 7), stride=(2, 2), padding=(3, 3), bias=False)
  (bn1): BatchNorm2d(64, eps=1e-05, momentum=0.1, affine=True, track_running_stats=True)
  (relu): ReLU(inplace=True)
  (maxpool): MaxPool2d(kernel_size=3, stride=2, padding=1, dilation=1, ceil_mode=False)
  (layer1): ModuleList(
    (0): Bottleneck(
      (conv1): Conv2d(64, 57, kernel_size=(1, 1), stride=(1, 1), bias=False)
      (bn1): BatchNorm2d(57, eps=1e-05, momentum=0.1, affine=True, track_running_stats=True)
      (relu1): ReLU(inplace=True)
      (conv2): Conv2d(57, 57, kernel_size=(3, 3), stride=(1, 1), padding=(1, 1), bias=False)
      (bn2): BatchNorm2d(57, eps=1e-05, momentum=0.1, affine=True, track_running_stats=True)
      (relu2): ReLU(inplace=True)
      (conv3): Conv2d(57, 153, kernel_size=(1, 1), stride=(1, 1), bias=False)
      (bn3): BatchNorm2d(153, eps=1e-05, momentum=0.1, affine=True, track_running_stats=True)
      (relu3): ReLU(inplace=True)
      (downsample): Sequential(
        (0): Conv2d(64, 153, kernel_size=(1, 1), stride=(1, 1), bias=False)
        (1): BatchNorm2d(153, eps=1e-05, momentum=0.1, affine=True, track_running_stats=True)
      )
    )
    (1): Bottleneck(
      (conv1): Conv2d(153, 19, kernel_size=(1, 1), stride=(1, 1), bias=False)
      (bn1): BatchNorm2d(19, eps=1e-05, momentum=0.1, affine=True, track_running_stats=True)
      (relu1): ReLU(inplace=True)
      (conv2): Conv2d(19, 19, kernel_size=(3, 3), stride=(1, 1), padding=(1, 1), bias=False)
      (bn2): BatchNorm2d(19, eps=1e-05, momentum=0.1, affine=True, track_running_stats=True)
      (relu2): ReLU(inplace=True)
      (conv3): Conv2d(19, 153, kernel_size=(1, 1), stride=(1, 1), bias=False)
      (bn3): BatchNorm2d(153, eps=1e-05, momentum=0.1, affine=True, track_running_stats=True)
      (relu3): ReLU(inplace=True)
    )
    (2): Bottleneck(
      (conv1): Conv2d(153, 19, kernel_size=(1, 1), stride=(1, 1), bias=False)
      (bn1): BatchNorm2d(19, eps=1e-05, momentum=0.1, affine=True, track_running_stats=True)
      (relu1): ReLU(inplace=True)
      (conv2): Conv2d(19, 19, kernel_size=(3, 3), stride=(1, 1), padding=(1, 1), bias=False)
      (bn2): BatchNorm2d(19, eps=1e-05, momentum=0.1, affine=True, track_running_stats=True)
      (relu2): ReLU(inplace=True)
      (conv3): Conv2d(19, 153, kernel_size=(1, 1), stride=(1, 1), bias=False)
      (bn3): BatchNorm2d(153, eps=1e-05, momentum=0.1, affine=True, track_running_stats=True)
      (relu3): ReLU(inplace=True)
    )
  )
  (layer2): ModuleList(
    (0): Bottleneck(
      (conv1): Conv2d(153, 102, kernel_size=(1, 1), stride=(1, 1), bias=False)
      (bn1): BatchNorm2d(102, eps=1e-05, momentum=0.1, affine=True, track_running_stats=True)
      (relu1): ReLU(inplace=True)
      (conv2): Conv2d(102, 102, kernel_size=(3, 3), stride=(2, 2), padding=(1, 1), bias=False)
      (bn2): BatchNorm2d(102, eps=1e-05, momentum=0.1, affine=True, track_running_stats=True)
      (relu2): ReLU(inplace=True)
      (conv3): Conv2d(102, 307, kernel_size=(1, 1), stride=(1, 1), bias=False)
      (bn3): BatchNorm2d(307, eps=1e-05, momentum=0.1, affine=True, track_running_stats=True)
      (relu3): ReLU(inplace=True)
      (downsample): Sequential(
        (0): Conv2d(153, 307, kernel_size=(1, 1), stride=(2, 2), bias=False)
        (1): BatchNorm2d(307, eps=1e-05, momentum=0.1, affine=True, track_running_stats=True)
      )
    )
    (1): Bottleneck(
      (conv1): Conv2d(307, 38, kernel_size=(1, 1), stride=(1, 1), bias=False)
      (bn1): BatchNorm2d(38, eps=1e-05, momentum=0.1, affine=True, track_running_stats=True)
      (relu1): ReLU(inplace=True)
      (conv2): Conv2d(38, 38, kernel_size=(3, 3), stride=(1, 1), padding=(1, 1), bias=False)
      (bn2): BatchNorm2d(38, eps=1e-05, momentum=0.1, affine=True, track_running_stats=True)
      (relu2): ReLU(inplace=True)
      (conv3): Conv2d(38, 307, kernel_size=(1, 1), stride=(1, 1), bias=False)
      (bn3): BatchNorm2d(307, eps=1e-05, momentum=0.1, affine=True, track_running_stats=True)
      (relu3): ReLU(inplace=True)
    )
    (2): Bottleneck(
      (conv1): Conv2d(307, 38, kernel_size=(1, 1), stride=(1, 1), bias=False)
      (bn1): BatchNorm2d(38, eps=1e-05, momentum=0.1, affine=True, track_running_stats=True)
      (relu1): ReLU(inplace=True)
      (conv2): Conv2d(38, 38, kernel_size=(3, 3), stride=(1, 1), padding=(1, 1), bias=False)
      (bn2): BatchNorm2d(38, eps=1e-05, momentum=0.1, affine=True, track_running_stats=True)
      (relu2): ReLU(inplace=True)
      (conv3): Conv2d(38, 307, kernel_size=(1, 1), stride=(1, 1), bias=False)
      (bn3): BatchNorm2d(307, eps=1e-05, momentum=0.1, affine=True, track_running_stats=True)
      (relu3): ReLU(inplace=True)
    )
    (3): Bottleneck(
      (conv1): Conv2d(307, 38, kernel_size=(1, 1), stride=(1, 1), bias=False)
      (bn1): BatchNorm2d(38, eps=1e-05, momentum=0.1, affine=True, track_running_stats=True)
      (relu1): ReLU(inplace=True)
      (conv2): Conv2d(38, 38, kernel_size=(3, 3), stride=(1, 1), padding=(1, 1), bias=False)
      (bn2): BatchNorm2d(38, eps=1e-05, momentum=0.1, affine=True, track_running_stats=True)
      (relu2): ReLU(inplace=True)
      (conv3): Conv2d(38, 307, kernel_size=(1, 1), stride=(1, 1), bias=False)
      (bn3): BatchNorm2d(307, eps=1e-05, momentum=0.1, affine=True, track_running_stats=True)
      (relu3): ReLU(inplace=True)
    )
  )
  (layer3): ModuleList(
    (0): Bottleneck(
      (conv1): Conv2d(307, 204, kernel_size=(1, 1), stride=(1, 1), bias=False)
      (bn1): BatchNorm2d(204, eps=1e-05, momentum=0.1, affine=True, track_running_stats=True)
      (relu1): ReLU(inplace=True)
      (conv2): Conv2d(204, 204, kernel_size=(3, 3), stride=(2, 2), padding=(1, 1), bias=False)
      (bn2): BatchNorm2d(204, eps=1e-05, momentum=0.1, affine=True, track_running_stats=True)
      (relu2): ReLU(inplace=True)
      (conv3): Conv2d(204, 716, kernel_size=(1, 1), stride=(1, 1), bias=False)
      (bn3): BatchNorm2d(716, eps=1e-05, momentum=0.1, affine=True, track_running_stats=True)
      (relu3): ReLU(inplace=True)
      (downsample): Sequential(
        (0): Conv2d(307, 716, kernel_size=(1, 1), stride=(2, 2), bias=False)
        (1): BatchNorm2d(716, eps=1e-05, momentum=0.1, affine=True, track_running_stats=True)
      )
    )
    (1): Bottleneck(
      (conv1): Conv2d(716, 76, kernel_size=(1, 1), stride=(1, 1), bias=False)
      (bn1): BatchNorm2d(76, eps=1e-05, momentum=0.1, affine=True, track_running_stats=True)
      (relu1): ReLU(inplace=True)
      (conv2): Conv2d(76, 76, kernel_size=(3, 3), stride=(1, 1), padding=(1, 1), bias=False)
      (bn2): BatchNorm2d(76, eps=1e-05, momentum=0.1, affine=True, track_running_stats=True)
      (relu2): ReLU(inplace=True)
      (conv3): Conv2d(76, 716, kernel_size=(1, 1), stride=(1, 1), bias=False)
      (bn3): BatchNorm2d(716, eps=1e-05, momentum=0.1, affine=True, track_running_stats=True)
      (relu3): ReLU(inplace=True)
    )
    (2): Bottleneck(
      (conv1): Conv2d(716, 76, kernel_size=(1, 1), stride=(1, 1), bias=False)
      (bn1): BatchNorm2d(76, eps=1e-05, momentum=0.1, affine=True, track_running_stats=True)
      (relu1): ReLU(inplace=True)
      (conv2): Conv2d(76, 76, kernel_size=(3, 3), stride=(1, 1), padding=(1, 1), bias=False)
      (bn2): BatchNorm2d(76, eps=1e-05, momentum=0.1, affine=True, track_running_stats=True)
      (relu2): ReLU(inplace=True)
      (conv3): Conv2d(76, 716, kernel_size=(1, 1), stride=(1, 1), bias=False)
      (bn3): BatchNorm2d(716, eps=1e-05, momentum=0.1, affine=True, track_running_stats=True)
      (relu3): ReLU(inplace=True)
    )
    (3): Bottleneck(
      (conv1): Conv2d(716, 76, kernel_size=(1, 1), stride=(1, 1), bias=False)
      (bn1): BatchNorm2d(76, eps=1e-05, momentum=0.1, affine=True, track_running_stats=True)
      (relu1): ReLU(inplace=True)
      (conv2): Conv2d(76, 76, kernel_size=(3, 3), stride=(1, 1), padding=(1, 1), bias=False)
      (bn2): BatchNorm2d(76, eps=1e-05, momentum=0.1, affine=True, track_running_stats=True)
      (relu2): ReLU(inplace=True)
      (conv3): Conv2d(76, 716, kernel_size=(1, 1), stride=(1, 1), bias=False)
      (bn3): BatchNorm2d(716, eps=1e-05, momentum=0.1, affine=True, track_running_stats=True)
      (relu3): ReLU(inplace=True)
    )
    (4): Bottleneck(
      (conv1): Conv2d(716, 76, kernel_size=(1, 1), stride=(1, 1), bias=False)
      (bn1): BatchNorm2d(76, eps=1e-05, momentum=0.1, affine=True, track_running_stats=True)
      (relu1): ReLU(inplace=True)
      (conv2): Conv2d(76, 76, kernel_size=(3, 3), stride=(1, 1), padding=(1, 1), bias=False)
      (bn2): BatchNorm2d(76, eps=1e-05, momentum=0.1, affine=True, track_running_stats=True)
      (relu2): ReLU(inplace=True)
      (conv3): Conv2d(76, 716, kernel_size=(1, 1), stride=(1, 1), bias=False)
      (bn3): BatchNorm2d(716, eps=1e-05, momentum=0.1, affine=True, track_running_stats=True)
      (relu3): ReLU(inplace=True)
    )
    (5): Bottleneck(
      (conv1): Conv2d(716, 76, kernel_size=(1, 1), stride=(1, 1), bias=False)
      (bn1): BatchNorm2d(76, eps=1e-05, momentum=0.1, affine=True, track_running_stats=True)
      (relu1): ReLU(inplace=True)
      (conv2): Conv2d(76, 76, kernel_size=(3, 3), stride=(1, 1), padding=(1, 1), bias=False)
      (bn2): BatchNorm2d(76, eps=1e-05, momentum=0.1, affine=True, track_running_stats=True)
      (relu2): ReLU(inplace=True)
      (conv3): Conv2d(76, 716, kernel_size=(1, 1), stride=(1, 1), bias=False)
      (bn3): BatchNorm2d(716, eps=1e-05, momentum=0.1, affine=True, track_running_stats=True)
      (relu3): ReLU(inplace=True)
    )
  )
  (layer4): ModuleList(
    (0): Bottleneck(
      (conv1): Conv2d(716, 460, kernel_size=(1, 1), stride=(1, 1), bias=False)
      (bn1): BatchNorm2d(460, eps=1e-05, momentum=0.1, affine=True, track_running_stats=True)
      (relu1): ReLU(inplace=True)
      (conv2): Conv2d(460, 460, kernel_size=(3, 3), stride=(2, 2), padding=(1, 1), bias=False)
      (bn2): BatchNorm2d(460, eps=1e-05, momentum=0.1, affine=True, track_running_stats=True)
      (relu2): ReLU(inplace=True)
      (conv3): Conv2d(460, 1843, kernel_size=(1, 1), stride=(1, 1), bias=False)
      (bn3): BatchNorm2d(1843, eps=1e-05, momentum=0.1, affine=True, track_running_stats=True)
      (relu3): ReLU(inplace=True)
      (downsample): Sequential(
        (0): Conv2d(716, 1843, kernel_size=(1, 1), stride=(2, 2), bias=False)
        (1): BatchNorm2d(1843, eps=1e-05, momentum=0.1, affine=True, track_running_stats=True)
      )
    )
    (1): Bottleneck(
      (conv1): Conv2d(1843, 409, kernel_size=(1, 1), stride=(1, 1), bias=False)
      (bn1): BatchNorm2d(409, eps=1e-05, momentum=0.1, affine=True, track_running_stats=True)
      (relu1): ReLU(inplace=True)
      (conv2): Conv2d(409, 358, kernel_size=(3, 3), stride=(1, 1), padding=(1, 1), bias=False)
      (bn2): BatchNorm2d(358, eps=1e-05, momentum=0.1, affine=True, track_running_stats=True)
      (relu2): ReLU(inplace=True)
      (conv3): Conv2d(358, 1843, kernel_size=(1, 1), stride=(1, 1), bias=False)
      (bn3): BatchNorm2d(1843, eps=1e-05, momentum=0.1, affine=True, track_running_stats=True)
      (relu3): ReLU(inplace=True)
    )
    (2): Bottleneck(
      (conv1): Conv2d(1843, 409, kernel_size=(1, 1), stride=(1, 1), bias=False)
      (bn1): BatchNorm2d(409, eps=1e-05, momentum=0.1, affine=True, track_running_stats=True)
      (relu1): ReLU(inplace=True)
      (conv2): Conv2d(409, 358, kernel_size=(3, 3), stride=(1, 1), padding=(1, 1), bias=False)
      (bn2): BatchNorm2d(358, eps=1e-05, momentum=0.1, affine=True, track_running_stats=True)
      (relu2): ReLU(inplace=True)
      (conv3): Conv2d(358, 1843, kernel_size=(1, 1), stride=(1, 1), bias=False)
      (bn3): BatchNorm2d(1843, eps=1e-05, momentum=0.1, affine=True, track_running_stats=True)
      (relu3): ReLU(inplace=True)
    )
  )
  (avgpool): AdaptiveAvgPool2d(output_size=(1, 1))
  (fc): Linear(in_features=1843, out_features=1000, bias=True)
)
[2021-11-11 09:29:18] storing pruned_model:/finally_pruned_model/resnet_50_111_fs.pt
[2021-11-11 09:30:34] validate Loss: 1.0556 Acc@1: 73.43 Acc@5: 91.57 time: 75.6701
[2021-11-11 09:30:34] finally model  Acc@1: 73.43 Acc@5: 91.57 flops: 1504688024.0 params:13728139.0
